6607
19162
474
4660
(None, 50, 256)
attention_1_W
_________________________________________________________________
Layer (type)                 Output Shape              Param #   
=================================================================
input_1 (InputLayer)         (None, 50)                0         
_________________________________________________________________
embedding_1 (Embedding)      (None, 50, 200)           22322600  
_________________________________________________________________
bidirectional_1 (Bidirection (None, 50, 256)           336896    
_________________________________________________________________
attention_1 (Attention)      (None, 256)               306       
_________________________________________________________________
dense_1 (Dense)              (None, 128)               32896     
_________________________________________________________________
dropout_1 (Dropout)          (None, 128)               0         
_________________________________________________________________
dense_2 (Dense)              (None, 1)                 129       
=================================================================
Total params: 22,692,827
Trainable params: 370,227
Non-trainable params: 22,322,600
_________________________________________________________________
None
Train on 23192 samples, validate on 2577 samples
Epoch 1/10

  256/23192 [..............................] - ETA: 3:06 - loss: 0.8340 - f1_m: 0.2804
  512/23192 [..............................] - ETA: 1:49 - loss: 0.8057 - f1_m: 0.2709
…
